data.pth (torch, 5271 bytes, 6 tensors)

l1.weight f4 [8, 59]
-0.021674104 -0.17487974 -0.4116526 0.612838 -0.24611175 -0.20038259 -0.04200468 -0.26984742
-0.52174157 -0.056307867 -0.38072118 -0.20949155 0.55141973 0.3553846 0.6147191 -0.19046241
0.74810356 0.30721232 -0.2341764 0.018985355 0.43023857 -0.44375956 0.019143485 -0.44388166
-0.44381386 -0.022126494 0.3357665 -0.30443743 0.6863946 -0.32853657 0.33113974 -0.1001833
0.09820283 0.5056553 0.21471642 -0.29611307 0.77238584 -0.1871991 0.2978416 0.4349633
0.5120613 -0.09588764 -0.13696055 -0.07414396 0.07322305 0.6640048 0.43875968 -0.01619474
0.26838836 -0.050567627 0.25919417 0.10971176 0.10686675 0.9448581 0.8190918 0.44576344
0.4232497 -0.2552312 -0.09137485 0.6516492 0.6134789 -0.54658294 -0.0793684 -0.29689953
-0.4267111 0.64912885 -0.02804981 -0.22681998 -0.17507446 -0.39904284 -0.1157971 0.11050051
0.15269604 0.09195635 0.43920156 -0.15495688 0.09653615 -0.35810035 0.7501245 0.33742398
-0.47391218 0.44880956 -0.47391924 -0.47390196 -0.38985863 -0.08925821 -0.16783318 0.51283425
0.3900408 0.2918634 0.42835024 0.4957645 -0.10584529 0.44304773 -0.42095143 -0.16821925
0.5034434 0.022367984 0.3734711 0.044413544 -0.20527938 0.018789014 -0.22157487 0.43207932
0.2983394 -0.020452857 0.45669916 -0.34372747 0.47675544 0.81998724 0.43919235 -0.009166648
-0.30617455 0.36920834 0.14025782 0.32030958 -0.15389624 0.34301975 -0.11155783 -0.3444639
0.64780945 -0.043890245 0.3678537 0.69788724 -0.5096738 0.44394952 0.6293828 0.75510484
0.48800385 0.60176986 0.2350649 0.37975335 0.040122952 -0.20046042 0.32715786 0.27434686
0.6492559 -0.37043843 -0.45011798 0.85523856 -0.36011216 0.8043163 0.72407895 0.52767605
0.591137 0.47017863 -0.49350247 -0.31649393 -0.2071893 -0.27012566 -0.13995294 0.0350001
-0.059290096 0.49887916 -0.082311414 -0.15172105 0.42191476 -0.38242242 0.29658347 0.5825612
0.42213315 0.53669435 -0.17415056 -0.5621325 0.19474709 -0.25177184 0.53576666 -0.10025169
-0.6885391 -0.14759299 0.22429523 0.0475066 -0.38652897 0.26997215 -0.25656533 0.44858414
0.20068155 -0.22466412 0.55090785 0.2467437 0.010168767 -0.27327886 -0.36718085 0.46387434
0.19842005 0.07988036 0.52946115 0.1716095 -0.28816357 0.54880655 0.70957386 0.5063518
0.42577362 -0.13365173 0.33478412 -0.15247504 0.3848057 0.37940902 -0.44019014 0.0007219232
-0.4403553 -0.44038364 0.008101832 0.42696604 -0.22802517 0.59393156 0.47638756 0.30684343
0.21085735 0.25712684 0.6279929 0.04849981 0.3179162 -0.24215503 0.55943346 0.27553183
0.35084936 -0.17163818 0.6295692 0.3251344 0.3107397 0.15797319 0.33601326 0.4963505
0.43202427 0.62960917 0.6476524 -0.44035733 -0.2162817 0.061113533 -0.18822984 0.41940513
0.36143428 0.5148647 0.14872754 0.17318355 0.058811754 0.39015406 0.35346723 0.66361594
-0.13271584 0.23925912 -0.45330325 0.4371533 0.21240811 0.6220473 0.24425714 0.024439342
-0.23032044 0.5539022 0.24103136 0.35043782 0.67102134 -0.03742579 0.21835008 -0.45337424
00000000: e48d b1bc ad13 33be 21c4 d2be f3e2 1c3f
00000010: b804 7cbe 1831 4dbe 190d 2cbd 7129 8abe
00000020: db90 05bf 14a3 66bd e3ed c2be f484 56be
00000030: d829 0d3f f8f4 b53e 3b5e 1d3f 9408 43be
00000040: b783 3f3f ef4a 9d3e f0cb 6fbe 2d87 9b3c
00000050: 3b48 dc3e 7434 e3be ccd2 9c3c 7544 e3be
00000060: 923b e3be 9f42 b5bc 96e9 ab3e 39df 9bbe
00000070: 8eb7 2f3f f235 a8be 268b a93e e72c cdbd
00000080: 911e c93d a072 013f 9fde 5b3e 229c 97be
00000090: 14bb 453f 1fb1 3fbe b27e 983e 82b3 de3e
000000a0: 7316 033f bd60 c4bd 633f 0cbe cad8 97bd
000000b0: f7f5 953d 38fc 293f 1ca5 e03e d5aa 84bc
000000c0: 336a 893e 0020 4fbd 19b5 843e 8fb0 e03d
000000d0: f4dc da3d 38e2 713f 00b0 513f 1b3b e43e
000000e0: 2fb4 d83e aaad 82be bd22 bbbd 7bd2 263f
000000f0: f40c 1d3f dcec 0bbf e68b a2bd 3703 98be
00000100: e179 dabe 4f2d 263f b7c8 e5bc 7f43 68be
00000110: b846 33be 584f ccbe 0827 edbd 174e e23d
00000120: 5a5c 1c3e 9c53 bc3d 07df e03e 04ad 1ebe
00000130: bfb4 c53d ee58 b7be 2908 403f d6c2 ac3e
00000140: 9ea4 f2be 5eca e53e 8ba5 f2be 47a3 f2be
00000150: 8d9b c7be 02cd b6bd 76dc 2bbe 1b49 033f
00000160: 6eb3 c73e 1f6f 953e b950 db3e d8d4 fd3e
00000170: 6ac5 d8bd 27d7 e23e f286 d7be ab41 2cbe
00000180: abe1 003f 103d b73c 9b37 bf3e faea 353d
00000190: c234 52be 6beb 993c 86e4 62be 8039 dd3e
000001a0: f1bf 983e c08c a7bc 79d4 e93e 0cfd afbe
000001b0: 4a19 f43e afea 513f d2dd e03e b52f 16bc
000001c0: e9c2 9cbe e008 bd3e bf9f 0f3e 9eff a33e
000001d0: fa96 1dbe 49a0 af3e 6e78 e4bd 935d b0be
000001e0: d7d6 253f 42c6 33bd 5257 bc3e bda8 323f
000001f0: fb79 02bf 5a4d e33e 3b1f 213f 8d4e 413f
00000200: a4db f93e 970d 1a3f dab4 703e 086f c23e
00000210: f757 243d 7f45 4dbe 3c81 a73e 3177 8c3e
00000220: a235 263f 1baa bdbe dd75 e6be eaf0 5a3f
00000230: 9f60 b8be ace7 4d3f 3d5d 393f c715 073f
00000240: c154 173f 41bb f03e 5bac fcbe 7e0b a2be
00000250: 6f29 54be e94d 8abe d34f 0fbe 445c 0f3d
00000260: 2cda 72bd 176d ff3e e392 a8bd c35c 1bbe
00000270: 3605 d83e dfcc c3be cad9 973e bb22 153f
00000280: d621 d83e cd64 093f 8654 32be eae7 0fbf
00000290: c86b 473e 3de8 80be 0128 093f c250 cdbd
000002a0: 1944 30bf 9e22 17be a6ad 653e 4896 423d
000002b0: 20e7 c5be ca39 8a3e 885c 83be d2ac e53e
000002c0: 777f 4d3e 5a0e 66be 4c08 0d3f 61aa 7c3e
000002d0: e69a 263c 35eb 8bbe 21ff bbbe f080 ed3e
000002e0: a02e 4b3e 5098 a33d c48a 073f 67ba 2f3e
000002f0: 2d8a 93be 967e 0c3f a2a6 353f 46a0 013f
00000300: 00ff d93e 00dc 08be d368 ab3e 6b22 1cbe
00000310: 4105 c53e e641 c23e 9a60 e1be 723f 3d3a
00000320: 4076 e1be f779 e1be 8cbd 043c 4b9b da3e
00000330: 6e7f 69be e60b 183f 12e9 f33e 951a 9d3e
00000340: fdea 573e 21a6 833e 25c4 203f bda7 463d
00000350: eac5 a23e 7df7 77be 0837 0f3f 8212 8d3e
00000360: 87a2 b33e ebc1 2fbe 722b 213f 0478 a63e
00000370: 4619 9f3e b9c3 213e ee09 ac3e a721 fe3e
00000380: 4932 dd3e 112e 213f 8ccc 253f 8476 e1be
00000390: f378 5dbe 2f52 7a3d 53bf 40be 45bc d63e
000003a0: ea0d b93e 2cce 033f 084c 183e 0757 313e
000003b0: 98e4 703d 46c2 c73e a8f9 b43e bce2 293f
000003c0: a9e6 07be 5800 753e 5d17 e8be 8fd2 df3e
000003d0: 8381 593e 7e3e 1f3f 8b1e 7a3e 0435 c83c
000003e0: 1fd9 6bbe 89cc 0d3f edd0 763e 966c b33e
000003f0: 0ec8 2b3f c94b 19bd 2a97 5f3e ab20 e8be

l1.bias f4 [8]
0.44379848 0.47390175 0.80219907 0.44021112 0.45335793 0.51411915 0.7609229 0.9809818
00000000: 8e39 e33e 40a3 f23e eb5c 4d3f 5a63 e13e
00000010: 881e e83e 509d 033f d8cb 423f a021 7b3f

l2.weight f4 [8, 8]
-0.04004275 0.7391191 0.20369768 -0.51153207 -1.1230009 0.6487923 -0.07503565 1.6996726
-0.3033695 -0.30821657 -0.27723658 -0.044172287 -0.3519446 -0.14163807 0.2791655 -0.36600396
1.013953 -0.51765 0.009646252 0.5609629 0.23325329 -0.4596799 -0.3608151 0.9621347
-0.2194937 -0.32356888 0.066352755 -0.20730463 -0.31876892 -0.33514342 0.21233955 -0.21782498
0.99505734 1.4824187 -0.9620414 0.92181 1.2442305 0.38457254 -0.025469055 0.6142274
-0.63926566 -0.42428532 1.2068187 0.7877955 -0.00303097 -0.69925326 1.4740152 1.1460654
0.23634171 -0.82593995 1.2842506 0.52960557 1.2779758 1.1394243 -0.5384303 0.05984706
0.44669622 -0.85969853 0.62746155 -1.0526226 0.5592374 -0.73426616 0.9677664 0.33865708
00000000: de03 24bd e936 3d3f 2096 503e c4f3 02bf
00000010: 7ebe 8fbf 4117 263f 4aac 99bd df8e d93f
00000020: 3f53 9bbe 90ce 9dbe f4f1 8dbe 00ee 34bd
00000030: 1532 b4be 9209 11be c8ee 8e3e df64 bbbe
00000040: 36c9 813f b684 04bf 500b 1e3c 449b 0f3f
00000050: f3d9 6e3e 2a5b ebbe c2bc b8be 764e 763f
00000060: f5c2 60be d2aa a5be f4e3 873d aa47 54be
00000070: ae35 a3be eb97 abbe 8a6f 593e 830d 5fbe
00000080: 14bc 7e3f e5bf bd3f 5848 76bf bdfb 6b3f
00000090: f242 9f3f b1e6 c43e 7ba4 d0bc 023e 1d3f
000000a0: eaa6 23bf ed3b d9be 0979 9a3f f7ac 493f
000000b0: 3da3 46bb 4302 33bf 88ac bc3f 45b2 923f
000000c0: 9003 723e cd70 53bf 5362 a43f 3b94 073f
000000d0: b694 a33f a8d8 913f 91d6 09bf 3122 753d
000000e0: 5eb5 e43e 3415 5cbf 52a1 203f 56bc 86bf
000000f0: 2f2a 0f3f def8 3bbf 8abf 773f 7664 ad3e

l2.bias f4 [8]
0.5842089 -0.1538015 -0.31490424 -0.31677812 0.19479276 0.56892794 0.39769858 0.66028637
00000000: b78e 153f 247e 1dbe 213b a1be be30 a2be
00000010: c177 473e 43a5 113f 269f cb3e 8708 293f

l3.weight f4 [8, 8]
-0.19278437 -0.38102987 0.66239357 0.3337374 -0.17472947 -0.07155527 0.10637552 -0.8848793
-1.5377729 -0.0022248675 -1.0596575 -0.03821227 0.6345962 0.72155166 -0.85679203 -0.7166129
0.612871 0.08877731 -0.026585221 -0.049540967 -0.0987182 0.581927 -1.7282467 -0.14066242
0.12971798 -0.17287423 -0.9473897 -0.09575912 -1.4499968 0.80679125 -0.07833824 0.87782735
-1.1805782 -0.38501468 0.15900889 0.28249303 0.6694131 -1.1386498 0.24205111 -0.578973
-1.2609063 -0.24650036 -0.6818125 0.0833824 -0.46662313 0.13260509 0.9185945 -0.66403306
-1.2779222 -0.022815377 0.22717153 -0.24217157 0.07409048 -0.12620154 -0.013423104 0.8441745
0.9219532 0.13628113 -1.1911803 -0.12520953 0.43669713 -1.1939968 -0.2050223 -0.37714398
00000000: 4469 45be 5916 c3be a092 293f a1df aa3e
00000010: 48ec 32be 928b 92bd 69db d93d 7387 62bf
00000020: bed5 c4bf 15cf 11bb dba2 87bf 7884 1cbd
00000030: e674 223f 9cb7 383f b956 5bbf f173 37bf
00000040: 1de5 1c3f e1d0 b53d 40c9 d9bc 78eb 4abd
00000050: c52c cabd 2bf9 143f 3037 ddbf cf09 10be
00000060: cad4 043e f105 31be 2288 72bf 5c1d c4bd
00000070: 7f99 b9bf df89 4e3f cd6f a0bd 4bb9 603f
00000080: 301d 97bf a520 c5be 3ad3 223e eda2 903e
00000090: a85e 2b3f 47bf 91bf 3fdc 773e 9337 14bf
000000a0: 6165 a1bf 976a 7cbe 448b 2ebf 64c4 aa3d
000000b0: 3ae9 eebe a1c9 073e 0229 6b3f 12fe 29bf
000000c0: f492 a3bf 50e7 babc a79f 683e d3fb 77be
000000d0: c0bc 973d fa3a 01be 94ec 5bbc d21b 583f
000000e0: 2005 6c3f 488d 0b3e 9978 98bf ed36 00be
000000f0: c496 df3e e3d4 98bf 5ef1 51be 0419 c1be

l3.bias f4 [8]
-0.16559367 -0.0077839675 0.23214847 0.028311307 -0.16489957 0.06651212 -0.31403807 0.33896387
00000000: 6391 29be a710 ffbb 54b8 6d3e 1ded e73c
00000010: 6fdb 28be 8237 883d 99c9 a0be ac8c ad3e
