data.pth (torch, 5015 bytes, 6 tensors)

l1.weight f4 [8, 54]
0	0xbd860dbf	-0.065455906
1	0x3ee86721	0.4539118
2	0x3e946450	0.28982782
3	0xbe0c8423	-0.13722281
4	0x3de727c8	0.112868845
5	0x3e63d2c4	0.2224837
6	0x3ebe4f2c	0.37169778
7	0x3ec2498f	0.37946746
8	0x3e91e67c	0.28496158
9	0x3e05f98d	0.13083477
10	0xbe1a4c8a	-0.1506826
11	0x3f31996e	0.6937474
12	0x3ef897b4	0.4855324
13	0x3f3e1ded	0.74264413
14	0x3f05c146	0.52248037
15	0x3ef76f33	0.48327026
16	0xbe1b6d8c	-0.15178508
17	0x3ea7f111	0.32801107
18	0xbd335bff	-0.043788906
19	0xbe8c18be	-0.27362627
20	0xbe659a4b	-0.2242214
21	0xbea18eee	-0.3155436
22	0xbe93bf33	-0.2885681
23	0xbe4ba522	-0.19887212
24	0x3edd4e6c	0.43223894
25	0xbe6bc3de	-0.23023936
26	0x3e18bcd5	0.14915784
27	0x3ebacda6	0.36485022
28	0x3ed5877d	0.41704932
29	0x3eb456fc	0.35222614
30	0x3e0c7eb7	0.13720213
31	0x3f3546f3	0.70811385
32	0xbe4b144d	-0.19831963
33	0x3e642973	0.22281437
34	0x3f255bda	0.6459328
35	0x3eb60852	0.35553223
36	0x3f02e6e6	0.51133573
37	0x3eda30de	0.42615408
38	0x3eb41693	0.35173473
39	0x3e63bf58	0.2224096
40	0x3dd07722	0.10178973
41	0x3d445051	0.04792816
42	0x3f11190f	0.5667886
43	0x3f066bbb	0.52508134
44	0x3f2897c6	0.6585659
45	0x3ee9651f	0.45584962
46	0xbf106bcf	-0.564145
47	0xbda5ec4a	-0.08101709
48	0x3e176db1	0.14787938
49	0x3e5567a7	0.20840321
50	0x3ef42539	0.4768465
51	0xbc207b72	-0.009795057
52	0x3dd96ae6	0.106160924
53	0x3e4aa4d8	0.19789445
54	0x3ed2aa61	0.41145614
55	0x3f54fdb2	0.8319961
56	0xbe7f6405	-0.24940498
57	0x3e9ca056	0.30591077
58	0xbdb51597	-0.088420086
59	0x3e3aa449	0.18226732
60	0xbd3a6bda	-0.04551301
61	0x3dacfdeb	0.084468685
62	0xbed22317	-0.41042396
63	0xbdfa66dd	-0.12226651
64	0x3e1d4a31	0.15360333
65	0xbe2aebc1	-0.16691495
66	0xbd62fa34	-0.055414394
67	0xbeb5aba9	-0.3548253
68	0x3f2967a6	0.6617378
69	0xbe371679	-0.17879666
70	0x3e54ae7a	0.20769683
71	0x3e084a6f	0.13309644
72	0xbe94ca70	-0.29060698
73	0x3e7328da	0.23746052
74	0x3f20e021	0.62841994
75	0x3eba2250	0.36354303
76	0x3e633902	0.22189716
77	0x3d80cbbd	0.0628886
78	0xbe2fe06c	-0.17175454
79	0x3e13850b	0.1440622
80	0xbebc3bbe	-0.3676433
81	0x3f358660	0.70908165
82	0xbe145c21	-0.1448827
83	0x3f2ffa34	0.68741155
84	0x3e80795c	0.2509259
85	0xbeb0f857	-0.34564468
86	0x3e7ace57	0.24492775
87	0xbed4c523	-0.41556653
88	0x3f4ce78c	0.8004081
89	0xbe4f18b5	-0.20224269
90	0xbe47d244	-0.19513804
91	0xbf03a7f7	-0.5142817
92	0xbe30e71f	-0.17275666
93	0xbe4a1da3	-0.19737868
94	0x3e3c8b48	0.18412507
95	0xbef2fbb4	-0.4745766
96	0xbe1264df	-0.14296292
97	0x3f190b1d	0.5978258
98	0xbe56684b	-0.20938222
99	0x3f1440c9	0.57911354
100	0x3f4c118c	0.79714274
101	0x3f0376b9	0.5135303
102	0x3e548ff5	0.2075804
103	0xbed2cb87	-0.41170904
104	0xbcaac981	-0.020848038
105	0xbe8b4107	-0.2719805
106	0x3c2c6ca5	0.01052395
107	0x3e6c49cc	0.23075026
108	0xbda448a5	-0.08021668
109	0x3dbcb23e	0.092136845
110	0x3e725e8f	0.23668884
111	0xbdf2137f	-0.11820125
112	0x3addec30	0.0016931351
113	0x3ee77fbc	0.4521464
114	0x3eb1bb4e	0.34713215
115	0x3e275e3a	0.16344538
116	0x3ebf49b2	0.37360913
117	0x3eb720dd	0.3576726
118	0xbe80d392	-0.25161415
119	0x3f041bec	0.51605105
120	0x3f439d93	0.76412314
121	0x3ef1bc12	0.472138
122	0x3bfbc256	0.0076830788
123	0x3e5135d7	0.20430695
124	0xbdbb76c7	-0.09153514
125	0x3edec26b	0.43507704
126	0x3ee2642e	0.44217056
127	0xbe9b8369	-0.30373695
128	0xbb93c6b2	-0.0045097703
129	0xbe9566ef	-0.29180095
130	0xbe9cb040	-0.30603218
131	0xbd41510b	-0.04719643
132	0x3ecc671a	0.3992241
133	0xbe83c500	-0.25736237
134	0x3f03f1f0	0.5154104
135	0x3e2320b0	0.15930438
136	0x3ee52ad9	0.44759253
137	0xbee5d7b4	-0.4489113
138	0x3e6baf7e	0.23016164
139	0x3f07c52d	0.5303524
140	0x3de65c6d	0.112480976
141	0x3ea2f753	0.31829318
142	0x3e9c48ea	0.3052438
143	0x3e42b0e3	0.1901279
144	0x3ecb61d4	0.39723074
145	0x3f1570d9	0.58375317
146	0x3ecbb3dc	0.3978566
147	0x3eab4053	0.33447513
148	0x3d8cc79f	0.06874012
149	0x3eb1e013	0.34741268
150	0x3e944866	0.28961486
151	0x3cd639c1	0.026150586
152	0x3ef415d0	0.47672892
153	0x3ea1c116	0.31592625
154	0xbecc088f	-0.3985028
155	0x3db8ce1c	0.09023687
156	0x3e5c66af	0.21523546
157	0x3f130cf7	0.5744166
158	0x3eb17bc7	0.34664747
159	0x3f03c0af	0.51465887
160	0x3ecb0e70	0.39659452
161	0x3ec8cdbe	0.3921947
162	0xbea596f1	-0.32341722
163	0x3f07559b	0.52865
164	0x3f214267	0.62991947
165	0x3e5b88ae	0.21438858
166	0x3f1c6ce2	0.6110364
167	0xbedaf492	-0.42764717
168	0x3ee10ce5	0.4395515
169	0x3f18bc3b	0.59662217
170	0x3ee679cb	0.45014796
171	0x3ec7ec36	0.39047402
172	0x3ecb8bf0	0.397552
173	0xbe87d880	-0.26532364
174	0x3e849baf	0.25900027
175	0xbe7a5b7f	-0.24448965
176	0x3ebb585e	0.36590856
177	0xbe2fe74a	-0.17178074
178	0x3eb27116	0.34851903
179	0xbec6961e	-0.38786405
180	0xbee77352	-0.4520517
181	0x3f3671ca	0.7126738
182	0xbe13ca0c	-0.14432544
183	0x3f011cb9	0.5043445
184	0x3f3d164e	0.7386216
185	0x3e8f93d9	0.28042486
186	0x3e72d606	0.23714456
187	0x3ea94c58	0.33066058
188	0xbef4c388	-0.47805429
189	0x3ef4e3b7	0.47829983
190	0xbe939f0e	-0.28832287
191	0x3f03164c	0.512059
192	0xbeade8e1	-0.33966735
193	0xbe9b8f75	-0.30382887
194	0xbe1bd3c6	-0.15217504
195	0x3ec87c0b	0.39157137
196	0x3ed98729	0.42485932
197	0xbe57bd74	-0.21068364
198	0xbe49f5c6	-0.19722661
199	0x3ed7f071	0.4217563
200	0x3ed3082f	0.4121718
201	0x3e8c6f42	0.27428633
202	0xbea35cbb	-0.31906685
203	0xbf18e55b	-0.5972497
204	0xbe84c7be	-0.2593364
205	0x3eb5485c	0.35406768
206	0xbd56a527	-0.052403595
207	0x3f12940d	0.5725716
208	0xbf47b282	-0.78006756
209	0xbe70080e	-0.23440573
210	0x3e9364ce	0.28787845
211	0xbf234d7c	-0.63790107
212	0xbe9c90e6	-0.305793
213	0xbe9f9f0b	-0.31176028
214	0x3f01c9c5	0.506985
215	0x3e9ccfbe	0.30627245
216	0x3d99be69	0.07507021
217	0xbcac87be	-0.02106082
218	0xbed36511	-0.41288045
219	0x3ebef805	0.372986
220	0xbecdbb94	-0.40182173
221	0x3f4285c0	0.75985336
222	0xbe8bf8e9	-0.2733834
223	0xbed9b79f	-0.42522904
224	0xbee3b3a8	-0.44473004
225	0xbec372f5	-0.38173643
226	0x3ecacef8	0.3961103
227	0x3f2113c5	0.6292079
228	0xbebdabd4	-0.37045157
229	0x3f0d9199	0.5530029
230	0xbe83d8a7	-0.2575123
231	0x3ec66ad0	0.38753366
232	0x3e8225c0	0.25419426
233	0x3f55f355	0.8357442
234	0xbe9e917b	-0.30970368
235	0xbd8a8ffb	-0.06765743
236	0x3e5a687c	0.2132892
237	0x3df500a0	0.1196301
238	0x3e120193	0.14258413
239	0x3ecbdba9	0.39816025
240	0x3e8c66bc	0.2742213
241	0x3e3eaa5e	0.18619677
242	0xbe963e7e	-0.29344553
243	0xbed3192a	-0.41230136
244	0xbd81db97	-0.063407116
245	0xbed1d2c9	-0.4098113
246	0x3f1d19d8	0.6136756
247	0x3efbe25d	0.4919614
248	0x3e495638	0.19661796
249	0xbeb63e83	-0.35594568
250	0xbeb8be66	-0.36082762
251	0x3edb3bcc	0.4281906
252	0xbe175b20	-0.14780855
253	0xbeaa9748	-0.33318543
254	0xbece90eb	-0.4034494
255	0xbe77c6c3	-0.24196915

l1.bias f4 [8]
0	0x3ebdc324	0.37062943
1	0x3f800584	1.0001683
2	0x3ee26aeb	0.44222197
3	0x3f33c7ea	0.7022692
4	0x3f9da2f2	1.2315352
5	0x3f1280b7	0.57227653
6	0x3f30a046	0.6899456
7	0x3f46cfbd	0.77660733

l2.weight f4 [8, 8]
0	0x3f4cc2f7	0.7998499
1	0x3ed94f02	0.4244309
2	0x3f1ad273	0.6047737
3	0x3f7aa64f	0.97910017
4	0xbf71975d	-0.9437159
5	0x3eb178ec	0.3466257
6	0xbed82a34	-0.42219698
7	0xbea72358	-0.32644153
8	0xbe9408dd	-0.28913012
9	0xbe3ae23e	-0.18250367
10	0xbe50e278	-0.20398891
11	0x3e9d07b8	0.3066995
12	0xbe81ed66	-0.25376433
13	0xbe95a840	-0.29229927
14	0x3e67b911	0.22629191
15	0xbe878e71	-0.26475862
16	0xbea7aa0d	-0.32746926
17	0xbe2e075a	-0.16994992
18	0xbe8e2b84	-0.27767575
19	0x3e5d8bca	0.21635357
20	0xbe1780fe	-0.147953
21	0xbe0f9be2	-0.14024308
22	0xbde8fdd4	-0.11376539
23	0x3e8ed0ff	0.27893826
24	0x3eef94d6	0.4679324
25	0x3c95dda0	0.018294156
26	0x3f618ac8	0.8810239
27	0xbf12a3a5	-0.5728095
28	0xbe5777ae	-0.21041748
29	0xbf6ce439	-0.9253574
30	0x3f82aafa	1.0208428
31	0x3ebba06a	0.36645824
32	0xbeafbec7	-0.3432524
33	0x3fcde6be	1.6086042
34	0xbe1117a5	-0.14169176
35	0x3f5da45c	0.8657892
36	0x3f94c15c	1.1621509
37	0xbf8de321	-1.1084939
38	0x3fa4e24f	1.2881564
39	0x3f6d5752	0.92711365
40	0xbee9bce0	-0.45651913
41	0xbe5d5949	-0.21616091
42	0xbf0c693c	-0.54848075
43	0x3f962507	1.173005
44	0xbebfe93e	-0.37482637
45	0x3fb3b570	1.4039745
46	0x3f3b4d2d	0.73164636
47	0x3fd616c2	1.6725695
48	0x3f3f0fdc	0.74633574
49	0xbf556b82	-0.8336717
50	0x3f97a28a	1.1846478
51	0xbdcebeaf	-0.10094964
52	0x3f691d2e	0.9106015
53	0x3fa334bd	1.275047
54	0xbed16ac3	-0.40901765
55	0x3f97ac55	1.1849467
56	0x3f415121	0.7551442
57	0x3e95339f	0.29140946
58	0x3e9e3141	0.30896953
59	0x3eaac1aa	0.3335088
60	0x3f816263	1.010815
61	0x3f7e25b9	0.9927631
62	0xbf9cd80b	-1.2253431
63	0xbf040c4b	-0.5158126

l2.bias f4 [8]
0	0x3e6aa38b	0.22913949
1	0xbe2f424f	-0.17115138
2	0xbe8aa3b6	-0.27078027
3	0x3e59cecd	0.21270294
4	0x3f30cb79	0.69060475
5	0xbe7a50b5	-0.2444485
6	0x3ef483dd	0.47756854
7	0xbe98e526	-0.29862326

l3.weight f4 [7, 8]
0	0xbf264ad7	-0.64957947
1	0xbe49369c	-0.19649738
2	0xbe84a7ce	-0.25909275
3	0xbf4ca3ee	-0.79937637
4	0xbfc92f23	-1.571751
5	0xbfad0d9e	-1.3519781
6	0x3f0add9c	0.542444
7	0x3f57450b	0.84089726
8	0x3f35db8e	0.7103814
9	0xbe7586b1	-0.23977162
10	0xbeaf6d2e	-0.34262985
11	0xbf150720	-0.58213997
12	0xbe5fea95	-0.2186683
13	0xbf13d147	-0.57741207
14	0xbf90d46b	-1.1314825
15	0x3e6cdb5a	0.23130551
16	0xbf9db837	-1.2321843
17	0x3e829082	0.25500876
18	0xbea1d115	-0.3160483
19	0xbf44a573	-0.76814955
20	0x3d35b668	0.04436341
21	0xbf9367d5	-1.1516062
22	0x3e92512c	0.28577554
23	0x3eddcd8a	0.43320876
24	0xbf235dbf	-0.6381492
25	0xbea21e5f	-0.31663796
26	0x3ea7222f	0.32643268
27	0xbfc68c6d	-1.5511605
28	0x3e7e43e5	0.24830587
29	0x3f977565	1.1832701
30	0xbf0f5157	-0.5598349
31	0xbfa2f556	-1.273112
32	0x3e5ff508	0.21870816
33	0x3dbb75a9	0.09153301
34	0xbd0e25c8	-0.034704
35	0x3f5b6c3b	0.8571202
36	0xbf904262	-1.1270258
37	0xbf9e22b4	-1.235434
38	0x3eeb6ea9	0.45982864
39	0xbf96e61c	-1.1788974
40	0x3eeb3f69	0.45946816
41	0x3d1d258a	0.03836588
42	0xbea638ad	-0.32465115
43	0xbf59a161	-0.8501187
44	0xbf86e456	-1.0538433
45	0x3e733db3	0.23754005
46	0x3e28a976	0.16470894
47	0xbe344c7e	-0.17607304
48	0xbf86abe0	-1.0521202
49	0xbc0a59d6	-0.00844427
50	0xbe458bc7	-0.19291602
51	0x3db8360d	0.08994684
52	0x3f4743f4	0.77838063
53	0xbef97458	-0.48721576
54	0xbfc96d6c	-1.5736518
55	0xbfb8215b	-1.4385179

l3.bias f4 [7]
0	0xbe752a47	-0.23941909
1	0xbecad41c	-0.39614952
2	0x3e542c1e	0.20719954
3	0xbf10245d	-0.56305486
4	0x3ec457b8	0.38348174
5	0xbda513a3	-0.08060386
6	0x3f2d8785	0.6778491
